Model: "regularized_relation_multimodal_classifier"
┏━━━━━━━━━━━━━━━━━━━━┳━━━━━━━━━━━━━━━━━━┳━━━━━━━━━━━━┳━━━━━━━━━━━━━━━━━━┓
┃ Layer (type)       ┃ Output Shape     ┃    Param # ┃ Connected to     ┃
┡━━━━━━━━━━━━━━━━━━━━╇━━━━━━━━━━━━━━━━━━╇━━━━━━━━━━━━╇━━━━━━━━━━━━━━━━━━┩
│ description_tokens │ (None, 12)       │          0 │ -                │
│ (InputLayer)       │                  │            │                  │
├────────────────────┼──────────────────┼────────────┼──────────────────┤
│ image (InputLayer) │ (None, 24, 24,   │          0 │ -                │
│                    │ 3)               │            │                  │
├────────────────────┼──────────────────┼────────────┼──────────────────┤
│ token_embedding    │ (None, 12, 20)   │        440 │ description_tok… │
│ (Embedding)        │                  │            │                  │
├────────────────────┼──────────────────┼────────────┼──────────────────┤
│ image_rescaling    │ (None, 24, 24,   │          0 │ image[0][0]      │
│ (Rescaling)        │ 3)               │            │                  │
├────────────────────┼──────────────────┼────────────┼──────────────────┤
│ text_average       │ (None, 20)       │          0 │ token_embedding… │
│ (GlobalAveragePoo… │                  │            │                  │
├────────────────────┼──────────────────┼────────────┼──────────────────┤
│ text_maximum       │ (None, 20)       │          0 │ token_embedding… │
│ (GlobalMaxPooling… │                  │            │                  │
├────────────────────┼──────────────────┼────────────┼──────────────────┤
│ image_flatten      │ (None, 1728)     │          0 │ image_rescaling… │
│ (Flatten)          │                  │            │                  │
├────────────────────┼──────────────────┼────────────┼──────────────────┤
│ text_pooling       │ (None, 40)       │          0 │ text_average[0]… │
│ (Concatenate)      │                  │            │ text_maximum[0]… │
├────────────────────┼──────────────────┼────────────┼──────────────────┤
│ image_dense_1      │ (None, 64)       │    110,656 │ image_flatten[0… │
│ (Dense)            │                  │            │                  │
├────────────────────┼──────────────────┼────────────┼──────────────────┤
│ text_features      │ (None, 32)       │      1,312 │ text_pooling[0]… │
│ (Dense)            │                  │            │                  │
├────────────────────┼──────────────────┼────────────┼──────────────────┤
│ image_features     │ (None, 32)       │      2,080 │ image_dense_1[0… │
│ (Dense)            │                  │            │                  │
├────────────────────┼──────────────────┼────────────┼──────────────────┤
│ text_dropout       │ (None, 32)       │          0 │ text_features[0… │
│ (Dropout)          │                  │            │                  │
├────────────────────┼──────────────────┼────────────┼──────────────────┤
│ image_dropout      │ (None, 32)       │          0 │ image_features[… │
│ (Dropout)          │                  │            │                  │
├────────────────────┼──────────────────┼────────────┼──────────────────┤
│ feature_difference │ (None, 32)       │          0 │ text_dropout[0]… │
│ (Subtract)         │                  │            │ image_dropout[0… │
├────────────────────┼──────────────────┼────────────┼──────────────────┤
│ feature_product    │ (None, 32)       │          0 │ text_dropout[0]… │
│ (Multiply)         │                  │            │ image_dropout[0… │
├────────────────────┼──────────────────┼────────────┼──────────────────┤
│ absolute_feature_… │ (None, 32)       │          0 │ feature_differe… │
│ (Lambda)           │                  │            │                  │
├────────────────────┼──────────────────┼────────────┼──────────────────┤
│ relation_fusion    │ (None, 128)      │          0 │ text_dropout[0]… │
│ (Concatenate)      │                  │            │ image_dropout[0… │
│                    │                  │            │ feature_product… │
│                    │                  │            │ absolute_featur… │
├────────────────────┼──────────────────┼────────────┼──────────────────┤
│ fusion_dense       │ (None, 48)       │      6,192 │ relation_fusion… │
│ (Dense)            │                  │            │                  │
├────────────────────┼──────────────────┼────────────┼──────────────────┤
│ fusion_dropout     │ (None, 48)       │          0 │ fusion_dense[0]… │
│ (Dropout)          │                  │            │                  │
├────────────────────┼──────────────────┼────────────┼──────────────────┤
│ class_probabiliti… │ (None, 3)        │        147 │ fusion_dropout[… │
│ (Dense)            │                  │            │                  │
└────────────────────┴──────────────────┴────────────┴──────────────────┘
 Total params: 120,827 (471.98 KB)
 Trainable params: 120,827 (471.98 KB)
 Non-trainable params: 0 (0.00 B)
