Model: "relation_aware_multimodal_classifier"
┏━━━━━━━━━━━━━━━━━━━━┳━━━━━━━━━━━━━━━━━━┳━━━━━━━━━━━━┳━━━━━━━━━━━━━━━━━━┓
┃ Layer (type)       ┃ Output Shape     ┃    Param # ┃ Connected to     ┃
┡━━━━━━━━━━━━━━━━━━━━╇━━━━━━━━━━━━━━━━━━╇━━━━━━━━━━━━╇━━━━━━━━━━━━━━━━━━┩
│ description_tokens │ (None, 12)       │          0 │ -                │
│ (InputLayer)       │                  │            │                  │
├────────────────────┼──────────────────┼────────────┼──────────────────┤
│ image (InputLayer) │ (None, 24, 24,   │          0 │ -                │
│                    │ 3)               │            │                  │
├────────────────────┼──────────────────┼────────────┼──────────────────┤
│ token_embedding    │ (None, 12, 16)   │        352 │ description_tok… │
│ (Embedding)        │                  │            │                  │
├────────────────────┼──────────────────┼────────────┼──────────────────┤
│ image_rescaling    │ (None, 24, 24,   │          0 │ image[0][0]      │
│ (Rescaling)        │ 3)               │            │                  │
├────────────────────┼──────────────────┼────────────┼──────────────────┤
│ text_average       │ (None, 16)       │          0 │ token_embedding… │
│ (GlobalAveragePoo… │                  │            │                  │
├────────────────────┼──────────────────┼────────────┼──────────────────┤
│ text_maximum       │ (None, 16)       │          0 │ token_embedding… │
│ (GlobalMaxPooling… │                  │            │                  │
├────────────────────┼──────────────────┼────────────┼──────────────────┤
│ image_flatten      │ (None, 1728)     │          0 │ image_rescaling… │
│ (Flatten)          │                  │            │                  │
├────────────────────┼──────────────────┼────────────┼──────────────────┤
│ text_pooling       │ (None, 32)       │          0 │ text_average[0]… │
│ (Concatenate)      │                  │            │ text_maximum[0]… │
├────────────────────┼──────────────────┼────────────┼──────────────────┤
│ image_dense_1      │ (None, 64)       │    110,656 │ image_flatten[0… │
│ (Dense)            │                  │            │                  │
├────────────────────┼──────────────────┼────────────┼──────────────────┤
│ text_features      │ (None, 32)       │      1,056 │ text_pooling[0]… │
│ (Dense)            │                  │            │                  │
├────────────────────┼──────────────────┼────────────┼──────────────────┤
│ image_features     │ (None, 32)       │      2,080 │ image_dense_1[0… │
│ (Dense)            │                  │            │                  │
├────────────────────┼──────────────────┼────────────┼──────────────────┤
│ feature_difference │ (None, 32)       │          0 │ text_features[0… │
│ (Subtract)         │                  │            │ image_features[… │
├────────────────────┼──────────────────┼────────────┼──────────────────┤
│ feature_product    │ (None, 32)       │          0 │ text_features[0… │
│ (Multiply)         │                  │            │ image_features[… │
├────────────────────┼──────────────────┼────────────┼──────────────────┤
│ absolute_feature_… │ (None, 32)       │          0 │ feature_differe… │
│ (Lambda)           │                  │            │                  │
├────────────────────┼──────────────────┼────────────┼──────────────────┤
│ relation_fusion    │ (None, 128)      │          0 │ text_features[0… │
│ (Concatenate)      │                  │            │ image_features[… │
│                    │                  │            │ feature_product… │
│                    │                  │            │ absolute_featur… │
├────────────────────┼──────────────────┼────────────┼──────────────────┤
│ fusion_dense       │ (None, 64)       │      8,256 │ relation_fusion… │
│ (Dense)            │                  │            │                  │
├────────────────────┼──────────────────┼────────────┼──────────────────┤
│ fusion_dropout     │ (None, 64)       │          0 │ fusion_dense[0]… │
│ (Dropout)          │                  │            │                  │
├────────────────────┼──────────────────┼────────────┼──────────────────┤
│ class_probabiliti… │ (None, 3)        │        195 │ fusion_dropout[… │
│ (Dense)            │                  │            │                  │
└────────────────────┴──────────────────┴────────────┴──────────────────┘
 Total params: 122,595 (478.89 KB)
 Trainable params: 122,595 (478.89 KB)
 Non-trainable params: 0 (0.00 B)
